best/score 389/gen 16/weight0.npy (npy, 512 bytes, 1 tensors)

array f8 [6, 8]
000000 b0 83 21 9d 2b 11 b9 3f 88 21 d8 af f5 4d e5 bf
       0.09791824899868007 -0.6657665667017207
000010 db 6b 11 6b 57 0a e4 bf b0 fb 9c 2d 79 1f f5 bf
       -0.6262623873875514 -1.3201839238897541
000020 83 ea 62 f1 02 f7 e3 3f a9 37 03 60 25 91 f1 3f
       0.6239027704790064 1.0979360342493953
000030 20 f5 79 6e 55 30 e3 3f 9c fd 83 8e 31 79 cd 3f
       0.5996501119367714 0.2302610345723054
000040 72 47 01 6e 55 80 f0 3f 50 82 bb 07 77 5f e7 bf
       1.0313314721174405 -0.73040343771215
000050 ae 01 c6 da 8d 83 ba 3f 28 36 92 eb 4f dc b8 3f
       0.10356985655926707 0.09711169720886714
000060 aa e8 75 0a be 06 dd 3f ab a6 5d 0d 72 e1 ee bf
       0.4535365202097049 -0.9650202046443231
000070 be a6 b2 09 09 c0 f5 bf 10 fb 04 80 63 b8 f7 bf
       -1.3593836191961794 -1.4825167656669613
000080 b3 3b cb ee 65 da f2 3f 36 1a 28 64 41 e6 e0 3f
       1.1783198669324804 0.5281073528465814
000090 10 04 c6 9f e4 97 bd bf 1d 97 93 28 55 82 e3 3f
       -0.11559895420761301 0.6096597473631139
0000a0 6b bc f9 7a b3 8d e4 3f 0a 96 30 e0 d3 b4 03 c0
       0.6422974969735952 -2.4632947459056185
0000b0 14 bc cf d7 9d d4 b4 bf 3c 31 6d 01 bd 96 c6 bf
       -0.08136927145800171 -0.17647516793875606
0000c0 08 5f 93 80 f6 2b 00 40 8b 1d 3f 86 62 56 db bf
       2.021466259477055 -0.42714751348508945
0000d0 42 aa 00 fd 8b 70 d6 3f ca 2e b8 3f 02 70 d2 bf
       0.350619313309526 -0.2880864736805334
0000e0 ab 98 85 29 e1 b5 e2 3f 58 91 54 af 19 4c e4 3f
       0.5847020922635883 0.6342895912571676
0000f0 be 20 6d b8 04 be f0 bf 98 24 ee db 08 e6 d5 bf
       -1.0463912204887005 -0.34216519811213564
000100 c6 83 62 c4 67 24 ed 3f 21 c5 63 64 49 77 e1 bf
       0.9106940112725332 -0.5458113632904863
000110 d2 f9 26 f4 0d 9a f5 3f f0 72 15 2e a4 a3 e9 3f
       1.3501109635541195 0.801225748069184
000120 fb fe 9f a8 25 f0 f3 bf d2 e0 7c ab 6b 28 e1 bf
       -1.2461296641267257 -0.5361841534968568
000130 9e 77 80 5f 9e 89 dc bf 75 67 63 57 6a d5 c2 bf
       -0.4458995754847538 -0.14713792101866444
000140 d8 27 cb 59 90 bc ee 3f 64 8d 73 f1 1c c2 f0 bf
       0.9605180505543514 -1.0473908836073287
000150 dc 72 7b df 85 a8 cd 3f 44 23 d4 35 ea 7b e0 bf
       0.23170541202752915 -0.5151263285962178
000160 f6 0d f7 8d a6 18 de bf 86 54 c6 ef e7 b0 ea 3f
       -0.47025455344939304 0.8340949709987775
000170 2d ed ca 4b 7b 95 f3 3f ae 2c 42 40 25 79 e8 3f
       1.2239945374156591 0.7647882704781261
