best/score 389/gen 16/weight1.npy (npy, 416 bytes, 1 tensors)

array f8 [6, 6]
000000 e2 29 7a 9f 04 65 f5 3f 68 e6 e1 a7 69 e3 ea 3f
       1.3371626119211375 0.8402603415444903
000010 6e 17 70 3d d8 1c b9 bf f4 0a a2 18 14 5d f0 3f
       -0.09809638500163739 1.0227242433763282
000020 10 b3 e1 b4 73 29 d6 3f d1 f8 f6 d0 5a 3d d4 bf
       0.346280028002 -0.31624479681694334
000030 76 15 4b 4b 8c ce b0 bf 92 10 38 38 8f 2e e3 bf
       -0.06565167272773018 -0.599433526804676
000040 cd d2 4b 34 ee 68 bd bf 47 fd 99 89 a7 56 d2 bf
       -0.11488236214411103 -0.28653896749161273
000050 e2 26 d3 74 23 ac 00 c0 93 f2 43 0a 7d f6 f6 3f
       -2.0840520026148264 1.4351778412812208
000060 96 7d ab 80 1d cb d3 bf 9e 25 f0 a1 3c 44 f5 3f
       -0.30927217069071256 1.3291593862253204
000070 18 ea 2a af 11 b3 9c bf b4 91 e4 f5 1d dc ac bf
       -0.02802684432638544 -0.05636685968991931
000080 a6 31 2f 4c fc 9a f3 3f 96 17 b8 65 6d 47 d0 bf
       1.2253382659865593 -0.2543595784521754
000090 5e 2b 12 b7 0c 4c f5 bf 17 3e cb 4a b9 36 e6 3f
       -1.331066813584321 0.6941801510637927
0000a0 10 44 61 1d 0b e5 f1 3f 51 1f f8 40 74 0d d6 3f
       1.1184188029913038 0.34457117409373433
0000b0 a9 2d af a3 2d 67 d3 3f cc 9b 4e 82 41 3a d0 bf
       0.3031725023726844 -0.25355565762805266
0000c0 26 5a 98 64 d2 8b d9 bf ad c6 8a d8 51 70 e4 bf
       -0.39915904830687265 -0.6387109021508955
0000d0 3b 6e 91 d2 8b 7a f0 3f a8 8d 55 1d 3f 7a df 3f
       1.0299185014072367 0.4918363367525793
0000e0 c4 24 44 f8 f0 57 e7 3f 20 ce 7e 04 32 bd fc bf
       0.7294850205372758 -1.7961902785872397
0000f0 a5 6b 98 52 0c bf e4 bf 98 47 7d 39 96 35 c6 bf
       -0.6483213055793057 -0.17351033980463337
000100 1e b0 39 a1 74 dd ee 3f ac aa c8 f6 ba f3 e5 3f
       0.9645331524784557 0.6860022373196748
000110 f3 95 81 90 57 12 f8 bf 32 e6 d5 88 ae 79 e7 bf
       -1.504478039243051 -0.7336037323540892
