best/score 269/gen 33/weight1.npy (npy, 416 bytes, 1 tensors)

array f8 [6, 6]
-2.140116179320027 1.4621423389749642 -0.10723304668291024 -2.24625757901553 3.19023879607671 -2.23690319111877 1.260854821658635 0.2082266481791638
0.3792564631858359 -2.3709388104829445 -0.010156404865079087 1.881600964294463 0.23018738456250787 0.6862374961883491 -0.28086414333283066 -1.3317061537146528
-1.2356898904961944 0.8181581959069663 1.5545805006652902 0.3125699313610315 -0.46090150400974944 -0.07311185483060055 -0.36229895746672164 1.7888648634219713
0.9009648672711815 -0.5341110937912403 -2.0722189585121447 1.4575428900360428 -1.2983391625639635 0.85292066490148 1.6397704393096884 0.8803345167764299
0.7666413473052912 -0.1628565590044148 -1.7216619042333787 -0.7997756595970367
00000000: 568f 3e3b f51e 01c0 22e9 7f5d ef64 f73f
00000010: d9b4 8dfc 9f73 bbbf 571c c2e4 55f8 01c0
00000020: 99a3 fcea 9b85 0940 9f62 1180 2de5 01c0
00000030: aa71 001b 762c f43f 0ce8 0aba 2ba7 ca3f
00000040: bb81 8be6 bc45 d83f 2abb 5ec4 aef7 02c0
00000050: 0971 ec95 e1cc 84bf be44 dc9c 091b fe3f
00000060: 5ce9 52bc c776 cd3f 4e5f 6d56 a8f5 e53f
00000070: b7f2 8e99 adf9 d1bf d361 a11c ab4e f5bf
00000080: 16dd 3ac3 62c5 f3bf 35fe cb18 5a2e ea3f
00000090: 28b5 95cd 8fdf f83f 6c26 3a50 2501 d43f
000000a0: a38a 9905 697f ddbf 2784 7261 75b7 b2bf
000000b0: 1b72 6cf7 e72f d7bf 23c6 55c3 309f fc3f
000000c0: 63ca f845 b4d4 ec3f 0c74 0826 7017 e1bf
000000d0: ceaf 8788 e793 00c0 d68d 537e 1852 f73f
000000e0: 8440 2549 ffc5 f4bf aab3 3a47 204b eb3f
000000f0: cb85 9ced 7f3c fa3f 0708 e34a b32b ec3f
00000100: d900 4e6f 5388 e83f 9e78 6ed5 7bd8 c4bf
00000110: 1f39 575a ed8b fbbf 2e65 c31f c397 e9bf
