best/score 269/gen 33/weight0.npy (npy, 512 bytes, 1 tensors)

array f8 [6, 8]
0	0xbfcb7f5316949e09	-0.21482313730778937
1	0xc001769c4247fa0b	-2.1829152277198367
2	0xbfab0d5e179b0f7a	-0.05283636129527643
3	0xbfe8eb958b5ed125	-0.7787578317716323
4	0xbff6fb8854aad670	-1.4364093119924313
5	0x3fe133b311089187	0.5375609715161297
6	0x3fdbbcb05a13a564	0.43339165493542553
7	0x4000cd13df38fcaa	2.1001355590120356
8	0xbffb60391fea16a8	-1.7109919783264704
9	0x3fd52252ed62b0d0	0.3302199667184711
10	0xbfe72a7318c37133	-0.723931835523706
11	0x3fe3cccd4bc6da63	0.6187502365126644
12	0x4000f6dd0d8503b5	2.12053881227663
13	0x3fd0112ad0f51ac8	0.2510478058433532
14	0x3fc034a93126cac7	0.12660708332039958
15	0x4001b7efdd106f73	2.2148129721298857
16	0x3ff7f068911aba5f	1.4961934726849433
17	0xbffbac69a6a0929b	-1.7295929440380522
18	0xbfe43876cc83ebf1	-0.6318925852241347
19	0xc000187f94be727d	-2.011962091505039
20	0xbfb465d768d04aa7	-0.07967897709776627
21	0xbff18ad91712b196	-1.096398439530366
22	0x3fec3bfd21ed7b33	0.8823228514337188
23	0x40039f9f5810c451	2.4529406433216896
24	0xbfd33a61bfaf4a1c	-0.30043834418498405
25	0x3fe3f91e5a4b890a	0.6241599811149012
26	0xbfcac4faf34029f9	-0.20913636090729407
27	0xc000d83871a2503a	-2.105576408162986
28	0xbfe07cbd9737536c	-0.5152271226348666
29	0xbfd3bd196cae1377	-0.3084167062118505
30	0x3fe967f44652350d	0.7939397214373983
31	0x3ff2cb676262b4a3	1.1746591418443948
32	0xbfcb3121b1f9e55b	-0.21243687811128606
33	0x3fdfe28a0d330076	0.49820185936915296
34	0x4006644280444042	2.7989549656704478
35	0xbfc32c49beb316b5	-0.14978906451704224
36	0xbfe8e8e4673e7fff	-0.7784292236792679
37	0x3fe7c6cb188912f1	0.7430167655189434
38	0xc009633c6a086af8	-3.1734550746745036
39	0xbfc1d3d106d1c4bb	-0.13927662690142548
40	0xbfbd6951a7f17da8	-0.11488828993014144
41	0xc0019dff2515947d	-2.202146806450911
42	0x3ff3346ba56c1dbb	1.2002979718980515
43	0xbfcd2e77dc7b8ec5	-0.22798059716943989
44	0xbfb8df0f922c646e	-0.09715363806425767
45	0x3ff003da0d26bb17	1.000940371868358
46	0x3f7503fd56c7187e	0.005130757909176718
47	0x3f8bacddf2db1978	0.013513311361191369
