best/score 257/gen 56/weight0.npy (npy, 512 bytes, 1 tensors)

array f8 [6, 8]
00000000: 5dd0 ff71 41b3 e6bf 473f 7017 1322 f63f
00000010: a9d7 af40 3eb7 8abf 538d 2230 a0f6 f03f
00000020: c964 e250 e779 e53f 37e2 a43d 5d5d fcbf
00000030: cd38 6569 34af f4bf d8f5 4fd9 794d 04c0
00000040: 4df9 e704 27f5 e9bf d33f c4e9 0d24 f13f
00000050: e1dc c9ce 193a fcbf bfea 37ce f010 0ac0
00000060: 388f 868f 25ab f8bf a457 a590 9b5a f0bf
00000070: faaa 1a32 0af8 02c0 224a 5ea1 901a 0bc0
00000080: d862 ccfc d58f f2bf 4066 436c 1746 e23f
00000090: 2a73 87a6 7832 be3f 0999 6670 c455 fdbf
000000a0: 227c c7f3 b2e0 dfbf f361 8c41 1650 f9bf
000000b0: 24fe 4091 d338 ef3f 3231 0e4e fc75 0140
000000c0: f0a9 fe46 405b e3bf 1b61 072e 2ba8 ffbf
000000d0: ec2f db45 0a2e eb3f 9f61 07fd 852b ed3f
000000e0: 57cb 5453 403a f2bf c93a 0e27 9719 d3bf
000000f0: bde2 8731 8c8a 01c0 f4a7 6263 1d4f b2bf
00000100: b33f 5436 77ff e1bf cc47 4a83 cf70 fd3f
00000110: 12c2 f6c0 a555 da3f 8822 296b 0812 debf
00000120: edaa 8c27 9a9b d83f e09b e37c db28 8fbf
00000130: 5451 03c2 7cb4 02c0 8d74 6809 4145 c5bf
00000140: 6946 83c1 47b5 f73f 1915 6085 e0eb d03f
00000150: 3a09 3d17 b174 debf 62fc 00bb d3ae e93f
00000160: 247e a2e4 8738 fcbf ca4d 1c1f 1b00 ebbf
00000170: 6ef8 32ca 22bd c2bf b6c1 9c98 0ca9 0cc0
-0.7093817926929763 1.3833189883771 -0.013044821118437815 1.0602113609573578 0.6711308078548878 -1.772793999478507 -1.2927745930679067 -2.5378300645377116
-0.8111758323500823 1.0713023311145562 -1.7641847684552021 -3.258271800118876 -1.5417838674993174 -1.0221210146168938 -2.3711131967914953 -3.387971172990789
-1.160116183751759 0.5710560907857101 0.11795763078357582 -1.8334392920165234 -0.4980895405441875 -1.5820524750216662 0.9756868206968119 2.182610139663802
-0.6048890482537086 -1.9785568044663424 0.8493701328638941 0.91156291408247 -1.1392215018392642 -0.29843691648504184 -2.1926502103418373 -0.07151969601059688
-0.5624347745051551 1.840041649677448 0.4114775070584368 -0.46985063996229615 0.3844972025132581 -0.015214648007214338 -2.338128581739662 -0.16617596587540043
1.4817578848927957 0.26439679169591696 -0.475872299855968 0.8025911953371969 -1.7638014727634834 -0.8437629325512088 -0.14639696953776443 -3.5825435564840644
