best/score 257/gen 56/weight1.npy (npy, 416 bytes, 1 tensors)

array f8 [6, 6]
00000000: d235 ec98 5ddd f33f a8b9 4daf 594e f1bf
00000010: 13e8 bc07 054c f3bf 69bb ea07 6e3d f03f
00000020: f33e 4492 231a 0240 c98c 5f77 c917 f63f
00000030: 15ea ec4e 676a dcbf c8f8 8924 cfc5 edbf
00000040: 0a15 b558 7501 f73f 1908 bbbb e1bc be3f
00000050: 6739 7cda 1a1f fcbf 9f68 a218 0e73 db3f
00000060: 2c03 5403 dd46 e0bf dce4 07b1 4ff5 d1bf
00000070: 073f 8923 007b dd3f a7fa 11b9 74f0 e73f
00000080: a520 1e51 f2d7 d83f ee9b 92db 78d5 dfbf
00000090: 21b7 47bf 619a 03c0 b1dd 7958 11b9 0340
000000a0: f792 8506 664f 0840 59d4 10c9 65ab e23f
000000b0: 5e16 b7e6 08f3 f4bf 5c7c bb92 f008 f9bf
000000c0: de77 14c7 aee4 0140 2f84 ebac 0375 fcbf
000000d0: 104e bbfc 8ba8 df3f 14f1 d964 08b6 e53f
000000e0: fa64 69f8 03f5 f13f 2df6 c9a9 ffa4 f43f
000000f0: 2810 76e1 10f0 f2bf dca4 5898 a0fe c4bf
00000100: 7494 d9bf cbd2 f53f b132 ec80 d6b4 eabf
00000110: 527c 5c88 92a7 e03f 3215 4409 375e 0440
1.2415443395178625 -1.0816284988210132 -1.206059484697566 1.014997511792638 2.2627631594731326 1.3808073676125778 -0.4439943571811978 -0.9303966249133504
1.4378560509806584 0.1200696070982591 -1.757593968828212 0.42889740377143853 -0.5086503090861689 -0.28059761322181287 0.4606323573143389 0.7481025328305194
0.3881803314366244 -0.49740430300374683 -2.450381750465468 2.465365115374617 3.038768816901548 0.5834225585046041 -1.3093346607505718 -1.5646825534565982
2.236661486923352 -1.7785679583250944 0.4946622818071953 0.6784707994225152 1.1223182395536342 1.2902828819636725 -1.183609848697424 -0.16402060927183626
1.3639638418328817 -0.8345749395390013 0.5204556144052594 2.5460034107115
