best/score 268/gen 30/weight1.npy (npy, 416 bytes, 1 tensors)

array f8 [6, 6]
0	0xc001f41e3e737843	-2.244198310755594
1	0x3ff7e43881285950	1.4932179494113207
2	0xbfbe088e64f9a682	-0.1173180576821782
3	0xc001aa57c5cbeb41	-2.208175225530255
4	0x4007e1fcec6d19f5	2.985345694617758
5	0xc000788f795b7c95	-2.0588674050373563
6	0x3ff2ea2886d76021	1.1821675555456823
7	0x3f9ac9e907ad79b4	0.026160851567846158
8	0x3fd0c3cc4e942c8e	0.26195056604110156
9	0xc00261ca102a5b03	-2.2977486861158254
10	0xbfa948c1ecd176cc	-0.04938322082374
11	0x3fff12bc45386216	1.9420740798869978
12	0x3fd4b868a78ebc29	0.32375542033236343
13	0x3fe8369c5899ba0a	0.7566663485029619
14	0xbfc55af9d31e414a	-0.16683886345391336
15	0xbff61157fe2f008b	-1.379234307198234
16	0xbff177aa4392a446	-1.0917151107371565
17	0x3fe725cc2c376b32	0.7233639587023843
18	0x3ff7e49adc3c7ff8	1.4933117487889813
19	0x3fd4e68ce918f65e	0.3265716816275467
20	0xbfd7c2f434b0982f	-0.3712740435170216
21	0xbfb1fa888fa76e67	-0.07022908694437434
22	0xbfd1452c82e6145a	-0.2698470381076895
23	0x3ffc89d11271bfeb	1.78364665226763
24	0x3fed0954bbeaed77	0.9073890371577552
25	0xbfdd6ef6e9f7b8f2	-0.45989773605732787
26	0xc0010d0c4d6c3a74	-2.1313711212781588
27	0x3ff67dc2c0b1e659	1.4057033087869029
28	0xbff5d1d8fb51d879	-1.3637323205162188
29	0x3fe806a6795bad5e	0.7508118028903643
30	0x3ff8382c43ee268a	1.5137140897299184
31	0x3fed5e3c1d2f0d8e	0.9177532739635568
32	0x3fe56ed2919d5b1d	0.6697781414066842
33	0xbfc9a45a14e24420	-0.20032812137336098
34	0xbff83af3ad703e23	-1.514392545217455
35	0xbfe729c3a710e3d3	-0.72384817724298
