best/score 268/gen 30/weight0.npy (npy, 512 bytes, 1 tensors)

array f8 [6, 8]
-0.2862078015637214 -2.2242087768148218 -0.2018080975240275 -0.7070018892782084 -1.4281903289542268 0.5848153252999059 0.5125918616589792 2.0863523183888435
-1.8265413120219676 0.4103161320461933 -0.8086602232578443 0.5980774246463519 2.1843708093099834 0.12737037112954655 0.1505823102876041 2.2180709416298967
1.4394706121235086 -1.6427832357414185 -0.8161170300006226 -1.8397916759612802 0.023338748978751787 -1.1009530670162062 0.8710050495338888 2.6471141184310896
-0.20443695136107004 0.6599651013168109 -0.2939771160109746 -1.924056371105554 -0.6234658379626078 -0.4098874714505393 0.9895226960548791 1.233371636443325
-0.1661204642239998 0.4651634003018411 2.5988064628141596 -0.12752310206064257 -0.8522043313855784 0.8329135235839368 -3.0854990227736465 -0.20355629400315076
-0.20899949874066415 -2.0387801650830712 1.1192098376673019 -0.3215819835563225 -0.06856970366069795 1.0551239923229279 0.08337885320213355 0.1170089869785829
00000000: 22e1 e486 3a51 d2bf a52a 9ff8 2dcb 01c0
00000010: b882 7705 d9d4 c9bf b01f 156d c29f e6bf
00000020: 7226 351a ded9 f6bf 379b 0ba1 ceb6 e23f
00000030: 9fac 400c 2767 e03f 974f fb7b d9b0 0040
00000040: 26d6 fe61 8339 fdbf 2e37 0a98 9e42 da3f
00000050: f3fd 8e67 8be0 e9bf a19f 6a44 7323 e33f
00000060: 6396 2267 9779 0140 5d8a 3d1d ac4d c03f
00000070: 124c 05f9 4746 c33f 1011 54fa 9bbe 0140
00000080: 25fa 2956 1208 f73f bed2 fe12 d748 fabf
00000090: 60f6 3176 a11d eabf c24e 7b65 c96f fdbf
000000a0: 0688 5fee 1ce6 973f 7f3f 94f6 809d f1bf
000000b0: e4c3 4cfb 45df eb3f fd87 bb2a 4a2d 0540
000000c0: 5a49 1872 fd2a cabf 6206 d521 6f1e e53f
000000d0: b987 c264 85d0 d2bf d2f0 5855 efc8 febf
000000e0: d51f 07a1 6ef3 e3bf 8ee4 3aa9 983b dabf
000000f0: 1493 4680 2baa ef3f c968 a5e5 e3bb f33f
00000100: daea 8474 6f43 c5bf 92ec e5b5 3cc5 dd3f
00000110: af5c f30a 5bca 0440 fdde 6a50 ad52 c0bf
00000120: 7bf0 9904 4245 ebbf 610d 0643 3aa7 ea3f
00000130: e038 951c 1aaf 08c0 27ba d1f4 210e cabf
00000140: 9c5b fcdd 7ec0 cabf 471f a6f9 6b4f 00c0
00000150: ce47 2293 48e8 f13f 9cdc 9699 cc94 d4bf
00000160: 8a17 b8ba c88d b1bf e807 04b2 c9e1 f03f
00000170: bf5f ae07 5158 b53f 133e 690c 4df4 bd3f
